CodeOnJetson/Portability/QAMConvMod.onnx (onnx, 705 bytes, 1 tensors)

signal_part.weight f4 [2, 1, 33]
00000000: 69bf 5a3b 86fe 303a 179a 89bb ffcd 4bbb
00000010: 28da 753b a878 aa3b 6a4b 8fbb 3fad 45bc
00000020: 45f7 14bb 0ac9 693c 0212 903b c8ae 1dbd
00000030: cd80 66bd f990 143d 1dcb 823e 125b fe3e
00000040: ef3c 1a3f fe5c fe3e 49ca 823e 9296 143d
00000050: 9f7c 66bd 95ab 1dbd 901c 903b 84c1 693c
00000060: 5f11 15bb 1db3 45bc 8f47 8fbb 776d aa3b
00000070: 06d2 753b dba6 4bbb 5f9a 89bb 8282 313a
00000080: 48e6 5a3b 1fab 5a3b 2b18 313a 5e9e 89bb
00000090: 85c6 4bbb 31e4 753b 6e77 aa3b 443c 8fbb
000000a0: a7aa 45bc dd07 15bb bdd3 693c 0c34 903b
000000b0: 82b4 1dbd 027a 66bd dc96 143d 7ecb 823e
000000c0: d25d fe3e 943b 1a3f bd5c fe3e 45ca 823e
000000d0: d893 143d 127d 66bd aeb1 1dbd a550 903b
000000e0: a0c1 693c 9a47 15bb 96ae 45bc 2c47 8fbb
000000f0: 1774 aa3b d0b1 753b baea 4bbb b98f 89bb
00000100: 864d 313a 22e3 5a3b
0.003337825 0.0006751794 -0.004199277 -0.0031098125 0.0037514064 0.0052023716 -0.0043730037 -0.012065231
-0.0022730392 0.014269123 0.004396678 -0.038496763 -0.056275178 0.03627107 0.25545588 0.49678856
0.6024923 0.49680322 0.25544956 0.036276408 -0.05627119 -0.03849371 0.004397936 0.014267329
-0.002274595 -0.01206663 -0.004372544 0.0052010375 0.0037509217 -0.0031074795 -0.0041993107 0.00067714613
0.0033401418 0.0033366156 0.00067556155 -0.004199787 -0.0031093669 0.0037520046 0.0052022254 -0.004371198
-0.0120646125 -0.0022740283 0.014271674 0.0044007357 -0.038502224 -0.0562687 0.036276683 0.25545877
0.49680954 0.6024716 0.4968013 0.25544944 0.036273807 -0.05627162 -0.038499527 0.004404145
0.014267355 -0.0022778274 -0.01206555 -0.004372498 0.0052018273 0.0037490018 -0.003111525 -0.0041980413
0.0006763566 0.0033399542
